policy_net_agent.pth (torch, 76002 bytes, 6 tensors)

layer1.weight f4 [128, 8]
000000 37 22 90 3e 6a 90 c6 3e 9b fe 77 be c0 04 72 bd
       0.28151104 0.38782054 -0.24218218 -0.05908656
000010 a2 96 ba 3e 05 5a d5 3d 24 84 0a be 2e e0 5f bb
       0.3644305 0.104175605 -0.1352697 -0.003416072
000020 b2 22 26 be e5 ea 0a 3e f1 09 a8 3e b9 9d 82 3e
       -0.16224173 0.13566168 0.32820085 0.25510958
000030 a2 f7 77 be 96 f1 eb bd 20 e7 73 3e b8 95 a6 3e
       -0.24215558 -0.11520688 0.23818636 0.325361
000040 96 5e d5 3e 6e 8a 91 3b 29 9a 94 3c 6e 57 0b 3e
       0.41673726 0.004441551 0.018139916 0.1360757
000050 28 c1 0e be 78 03 3e 3e 67 c3 29 3e e2 47 55 bd
       -0.13940871 0.1855601 0.16578446 -0.052070506
000060 28 ba df 3e 09 11 ae be b3 61 ca bd 87 55 ec 3d
       0.43696713 -0.33997372 -0.09881916 0.115397505
000070 2d 52 4b be 37 76 5d bd 02 76 22 be 5d ff 61 bd
       -0.19855566 -0.054067817 -0.15865329 -0.055175174
000080 0a 97 03 3f bf 1a bc be 00 51 f1 bd d2 ef 32 be
       0.5140234 -0.36739156 -0.11783028 -0.17474297
000090 99 20 2a bc 8e 44 37 3e a5 8a 1c 3d 7e c4 93 bb
       -0.010383748 0.17897245 0.03821816 -0.0045095077
0000a0 4e 1c 76 3e 77 23 2c be da 08 94 3e 12 cd 8b 3d
       0.24034235 -0.16810404 0.28913003 0.068262234
0000b0 c7 83 5e bc b9 3a 00 bd bc 86 09 3c d5 58 b9 be
       -0.013581223 -0.031306002 0.00839394 -0.36200586
0000c0 8e 0a 7e be 3f c5 a6 be 77 34 38 be d6 ba 81 be
       -0.24808714 -0.32572362 -0.17988764 -0.25337857
0000d0 88 0d 0c be 07 2c 9b be 32 31 35 3d 7d 7c cd bd
       -0.13677037 -0.30307028 0.04423637 -0.1003351
0000e0 83 a6 02 3d 02 e0 25 be 97 80 4b 3e 94 28 9b be
       0.03189708 -0.16198733 0.19873272 -0.30304396
0000f0 a3 67 a8 3e d0 57 ab 3d 72 e6 35 be 38 da 89 bc
       0.3289157 0.08366358 -0.17763689 -0.016827688
000100 da 56 63 bd a1 26 66 3e 74 2d 8f be 09 fa c3 3d
       -0.05550275 0.22475673 -0.27964365 0.09569175
000110 d2 e3 56 3e 85 14 1c 3e b9 a2 5d be 34 27 7b be
       0.20985344 0.15242203 -0.21644105 -0.24526674
000120 9c 30 a3 3e 45 68 1d be 71 48 ad 3e 1b 71 18 3d
       0.31873024 -0.15371807 0.3384433 0.03721724
000130 9b 32 8c 3d 3f 16 5c be 22 9c 36 bb e9 c9 ba 3d
       0.0684559 -0.21492861 -0.0027864059 0.091205426
000140 02 b1 cb be e5 f3 c1 bb ee c5 8c be d3 af 7a bc
       -0.39783484 -0.005918967 -0.27494758 -0.015300709
000150 40 48 db 3d 72 cc c5 bd 99 7e 89 be 09 31 ee bc
       0.1070714 -0.096581355 -0.268544 -0.029076116
000160 7f dc ab 3b 8b 22 84 3e a9 52 14 3e ab 1a 18 3d
       0.005244791 0.25807604 0.14484657 0.037134808
000170 a0 34 c7 bd 52 ff 97 3d 5e bd 63 be 75 00 5b 3e
       -0.09726834 0.07421745 -0.22240207 0.21386893
000180 e0 46 9f be 5e e8 46 3e 0e 87 5f 3e 77 50 8a 3e
       -0.3110876 0.19424579 0.21828863 0.27014515
000190 7e d9 a2 3e 70 3d ac 3e 8a 3d 8b be 09 06 74 be
       0.31806558 0.33640623 -0.27195388 -0.23830427
0001a0 54 6e 5d 3e 81 01 66 3e fb 4a 05 3e 74 d3 49 3e
       0.21624118 0.22461511 0.13016884 0.19709569
0001b0 6c 67 1c 3e c4 dd 76 bd fe 3a c9 bd 69 e9 07 bc
       0.15273827 -0.060270086 -0.09825705 -0.008295395
0001c0 cb 52 87 3b 7c cd cc be 44 a1 7b 3e b5 20 c2 bd
       0.0041297427 -0.40000522 0.24573237 -0.094788946
0001d0 b1 35 75 be f4 5d 6c 3e e9 34 32 be 87 a8 d4 bd
       -0.23946263 0.23082715 -0.17402996 -0.103837065
0001e0 d7 cf 84 be d6 f3 9b bd 2d 9a 8a bd 77 f0 82 bd
       -0.2593982 -0.076148674 -0.06767688 -0.06393521
0001f0 f3 24 d6 bc 4e 94 f4 3e 44 a0 41 bd b2 84 f4 bd
       -0.026140666 0.47769397 -0.04727198 -0.11939372
000200 d6 7c a4 be 15 4e db 3e 33 42 9e 3d f5 0e 65 be
       -0.32126492 0.4283301 0.0772747 -0.22368987
000210 9d 57 78 3e d9 f3 9f 3d 6b 3f 29 be 48 70 b9 bc
       0.24252172 0.07810182 -0.16528098 -0.022636548
000220 ba 23 50 3e 50 02 38 be 37 63 22 3d 4a 2a ed bd
       0.20326129 -0.17969632 0.0396454 -0.115803316
000230 12 d6 0c be 9f 2e 1f be d1 96 2b 3e 4e bb 5d 3e
       -0.13753536 -0.15545128 0.1675675 0.21653482
000240 de 29 55 bd bf 4b e2 be 61 ee 95 3e 0a 20 ab 3d
       -0.05204188 -0.44198415 0.2928343 0.0835572
000250 67 31 db 3d ca 2d e3 bd 6b 69 ae bd c9 2c 85 be
       0.10702782 -0.11092718 -0.08516201 -0.2601073
000260 84 3b 36 be 68 8f 82 3e 43 2e 8b be f2 a9 dc 3d
       -0.17796141 0.25500035 -0.27183732 0.10774602
000270 91 c6 62 3e ca 93 40 3c c6 4b 8b 3d af 2b 81 3e
       0.2214606 0.011753986 0.06801562 0.2522864
000280 bf c5 8a 3e 50 af a2 be 27 c4 15 3e 03 c7 bf 3d
       0.27103993 -0.31774378 0.14625607 0.0936413
000290 b9 bb 69 3e da 3e 8a 3d 93 f1 33 3e 9c 01 18 3d
       0.22825517 0.06750269 0.17572622 0.03711091
0002a0 8a 1a a1 3c 47 d4 a5 3e 71 aa 2d 3e ec ae 94 3e
       0.019665975 0.32388517 0.1695955 0.29039705
0002b0 af df a4 bd f8 d8 52 3e 9d 80 93 be 94 9a 7d 3e
       -0.08050477 0.2059058 -0.28809062 0.24765998
0002c0 f8 d6 5d be 00 7a 7c 3d f1 e6 17 be 64 3f b7 3b
       -0.21664035 0.061639786 -0.14834191 0.0055922735
0002d0 a4 87 12 be 0f c7 84 3e 29 34 cb bc 3e cc 20 3e
       -0.14309555 0.2593312 -0.024805145 0.15702912
0002e0 33 e8 1a bc 96 a2 ac be 0d a1 74 be 48 7b 70 3e
       -0.009454775 -0.33717793 -0.23889561 0.23484528
0002f0 f3 51 69 bc 09 4f 03 be 96 9f 5f 3e 71 90 75 3e
       -0.01424073 -0.12823118 0.21838221 0.23980881
000300 e9 69 62 3e e5 89 57 bd 56 e0 57 3e c6 71 4a bd
       0.22110714 -0.05262174 0.21081671 -0.04942491
000310 3c da af 3d 25 7b 82 be d9 51 95 3d e4 65 27 3e
       0.08586547 -0.25484577 0.07291002 0.16347462
000320 f4 1d 2a be 6b 29 29 be 22 7a 1c be a0 18 ac 3d
       -0.16612989 -0.16519706 -0.15280965 0.08403134
000330 90 5d 63 be c8 22 92 be 73 12 29 be 82 f2 f3 bc
       -0.2220366 -0.2854216 -0.16510944 -0.029778723
000340 a6 10 94 3e 1d 4c 92 be ff ef 75 bc b3 08 95 be
       0.28918952 -0.28573695 -0.015010833 -0.291082
000350 8c 3d 80 3e 4d ee 7d bd 37 db b1 3d e9 f2 28 3e
       0.25046957 -0.06199484 0.0868439 0.16498913
000360 c4 be ac 3e 19 38 9d ba 0e a0 e3 bd 3c df 0f 3e
       0.33739293 -0.0011994868 -0.111145124 0.14050001
000370 51 80 88 3e 11 e4 aa be bc 44 b8 3d 52 f7 26 3d
       0.26660398 -0.33377126 0.08997485 0.040763207
000380 f8 74 7f be 95 e4 89 be ff f0 e9 3c 59 e9 a5 be
       -0.24946964 -0.26932207 0.028557299 -0.32404593
000390 4f 89 aa bd 00 59 94 3d 49 c3 84 be 1c 50 23 bb
       -0.08326971 0.07243538 -0.2593024 -0.0024919575
0003a0 0b 93 79 be 85 0d 9d bd 68 6b 6b 3e c2 60 2c 3e
       -0.24372499 -0.07668594 0.22990191 0.16833785
0003b0 cb 98 a0 be 10 3f b8 be 9f 90 89 3d 7d 55 f4 3d
       -0.31366572 -0.35985613 0.067170374 0.11930368
0003c0 70 f1 df be 5a d9 1a 3e 7f 49 83 3d 7b 1b b6 3c
       -0.4373889 0.15121976 0.06410503 0.0222299
0003d0 4e af d0 3e 3f 80 e7 3c 3b 2b 16 bd 4b b4 3c 3e
       0.40758747 0.028259395 -0.03666232 0.18428151
0003e0 54 c9 1b 3e 05 45 96 3d 6b 75 bd be 90 ca a7 3e
       0.1521352 0.07337383 -0.37003645 0.3277173
0003f0 f3 f2 2d bc 69 fd a2 3e 5b 70 9d bd 4c 75 06 be
       -0.010617006 0.31833962 -0.07687446 -0.13130683

layer1.bias f4 [128]
000000 a4 3c 9f be e5 71 eb bd 8c b3 a5 3e 0b be 24 3e
       -0.31100953 -0.11496333 0.32363546 0.1608812
000010 8f c6 98 bd 57 d2 0f 3f 58 9a f0 3d 16 86 85 be
       -0.07459747 0.5618033 0.11748189 -0.26078862
000020 3f d4 b8 bd c8 51 00 3d b7 fe c3 3e fc 57 8e be
       -0.09024858 0.031327993 0.3828027 -0.27801502
000030 91 54 6e 3e db 60 f1 3e 64 ba 4c 3e 43 36 c6 3e
       0.23274447 0.47144207 0.19992977 0.38713273
000040 0f d9 c8 3d a0 d8 b1 3e 43 a2 a7 3c a9 06 08 3f
       0.09807026 0.34735584 0.020463115 0.5313516
000050 bb 7c 04 be b1 70 9d 3c ff 52 22 3e 8b 23 4d 3c
       -0.12938206 0.019218775 0.15851973 0.012520681
000060 de 84 a3 3e 07 8b a8 3e d6 99 1a be d2 1e 8d 3e
       0.31937307 0.3291857 -0.15097746 0.27562577
000070 e8 7d c2 be d2 6c 98 3e 06 a6 63 3f 70 35 b7 3e
       -0.37986684 0.29770523 0.88925207 0.35782957
000080 2d fe 0b 3f 19 28 0f bd a7 15 aa be 63 b4 54 3d
       0.54684716 -0.03495035 -0.33219644 0.051929843
000090 cb af 4c 3e 82 42 43 3e db bd 9b 3e 87 c1 82 3e
       0.19988935 0.1906834 0.30418286 0.25538275
0000a0 ef 35 42 bd 32 50 92 3e 74 c6 4b 3d 1f d6 4e 3f
       -0.047414716 0.2857681 0.049749807 0.8079547
0000b0 54 ab e3 3e c3 9b ef 3e 45 a2 b5 bd 43 c5 9c 3e
       0.4446665 0.46798524 -0.08868841 0.3061925
0000c0 06 09 b2 bd 4b 3a c8 3e 76 62 ca 3e 2b 59 9a 3e
       -0.08693127 0.39106974 0.39528245 0.30146155
0000d0 b6 95 eb 3e 48 a0 ad 3e eb ed b2 3e b1 51 3c be
       0.46012658 0.33911347 0.34947142 -0.18390538
0000e0 d0 b2 34 bd 6a dc 73 be c4 85 52 be 24 28 28 3e
       -0.04411584 -0.2381455 -0.2055884 0.16421562
0000f0 65 64 2d bd 9e 2c 97 3e ad 31 eb 3d 1e 13 0d 3f
       -0.04233207 0.29526228 0.11484084 0.55107296
000100 90 b5 a3 3e b7 cd 70 be ff 69 3f be b2 05 42 3e
       0.3197446 -0.23515974 -0.18692778 0.18947485
000110 2e b4 a7 3e 2e 91 33 3d b3 a4 3a 3e 7a 5b 2b be
       0.32754654 0.043839626 0.1822689 -0.16734114
000120 93 38 09 be 2b 44 cc be 97 9f b3 bc 17 a3 a9 3e
       -0.13400488 -0.39895758 -0.021926684 0.3313224
000130 3b e4 02 3f 74 db 24 bd 19 1e 8e be e6 33 53 bd
       0.511295 -0.04024835 -0.27757338 -0.051563166
000140 d0 31 bb bd 5d d3 0c 3e c0 dc d8 3e 75 e8 70 3e
       -0.0914036 0.13752504 0.4235592 0.23526175
000150 47 ac 15 3e 7f f9 e5 3e 88 67 90 3e b0 8c 80 be
       0.146165 0.44916913 0.28203988 -0.25107336
000160 0c da ac be 0d 3f ca 3e 91 46 8a bd 78 a2 1a 3e
       -0.33760107 0.3950123 -0.06751741 0.1510104
000170 db 4f bb 3e 6a 1f f4 be 92 ca 01 be 92 03 2c be
       0.36584362 -0.47680217 -0.1267493 -0.16798237
000180 90 57 ac be 20 fb 8a be d0 b1 e2 bd fc d0 c2 3e
       -0.33660555 -0.27144718 -0.11069071 0.38050067
000190 4c f1 ce 3e a6 36 11 be d9 54 d0 bc b3 54 bb be
       0.4041847 -0.14181003 -0.025431084 -0.36588058
0001a0 49 9b 18 3e 06 cc 21 be 74 5d 9e be 6c 33 02 bf
       0.14902987 -0.15800485 -0.30930674 -0.50859714
0001b0 28 02 7c 3d 1b 69 36 3c 2e 34 95 3e 53 91 f6 3e
       0.061525494 0.0111334575 0.29141372 0.4815775
0001c0 65 33 f5 3b cd ab 45 be bb 6d 47 3e 1f 59 ee 3d
       0.0074829333 -0.19303818 0.19475453 0.11638092
0001d0 f7 c6 0d 3e 3c e1 64 3c 45 60 b7 bb 44 9c 65 be
       0.1384543 0.013969716 -0.005596193 -0.22422892
0001e0 27 94 46 3b 71 05 76 be 35 a0 c2 3c d4 31 59 be
       0.0030300708 -0.24025513 0.023758033 -0.21210414
0001f0 ab b5 80 3e e5 c7 b7 3e 99 9d 0a 3f 5b 95 a4 3e
       0.25138602 0.35894695 0.54146725 0.321452

layer2.weight f4 [128, 128]
000000 13 1c f7 bc fc 1d b3 3c 49 c9 97 bd 4e 50 55 3c
       -0.030164754 0.021864884 -0.07411439 0.013019634
000010 2a 70 1a 3d 07 5f 7a bd 95 2f 9a bb c8 e9 17 3d
       0.037704624 -0.06112578 -0.0047053793 0.037088186
000020 37 6f a6 bc 53 42 be bd 96 2b 62 3d 0e e7 da bc
       -0.020316703 -0.09289994 0.055217348 -0.026721504
000030 18 ed 21 3c 49 2d 1b be 60 c7 4b bd f2 a8 f3 3c
       0.009883188 -0.15153994 -0.049750686 0.029743645
000040 c6 bc a4 3c 7e c8 cb 3c 3c cf 7b 3c 0a 9c 7c 3c
       0.020109545 0.024875876 0.015369233 0.015418062
000050 d2 18 22 be 88 d7 9f 3d 26 2c cb 3c df b7 50 be
       -0.1582978 0.07804781 0.024801325 -0.20382641
000060 10 14 32 3d a0 67 29 bd c3 77 33 bd de 58 2b bd
       0.043476164 -0.04135859 -0.043815386 -0.041832797
000070 0a c5 5b bc 69 d9 30 bd cf 16 32 3d f3 ad 45 3d
       -0.013413677 -0.04317609 0.043478783 0.048261594
000080 70 7c 22 bd 0b b3 7e 3c e8 ba cb bd c8 75 aa bd
       -0.039669454 0.015545617 -0.09947759 -0.08323246
000090 4e 03 78 3c 15 a0 d9 3c be 74 75 bb ff a3 3f bd
       0.015137507 0.02656559 -0.0037453617 -0.04678726
0000a0 32 25 c9 3c 3c c2 b8 3d 12 57 b5 3b 3a 6d 0b 3e
       0.024553869 0.09021422 0.005534061 0.13615885
0000b0 d4 fe af 3c 3f e0 01 bd e9 0c 8b 3d 76 a0 d2 ba
       0.021483816 -0.031708 0.06789572 -0.001606955
0000c0 bb 2c d3 3b ee 70 a2 3d c7 8a ff bc 20 57 8c 3d
       0.0064445413 0.07931696 -0.031194104 0.06852555
0000d0 14 af 68 be 74 16 18 3d ee 9a be 3c 20 73 d8 3c
       -0.22723037 0.037130788 0.023267236 0.026422083
0000e0 ee de 0b be 92 b2 01 be 1b c5 c5 bd a1 1a a3 3d
       -0.1365926 -0.12665775 -0.096567355 0.079640634
0000f0 4a 7b 8e 3d 8f 11 20 3d 0e f9 13 3d 0a 4f 21 3d
       0.06957109 0.039079245 0.03612619 0.03938202
000100 47 8c f6 3d 05 be 91 bd 9c 7f bd 3d 06 dd e7 bd
       0.120384745 -0.071163215 0.09252855 -0.11321454
000110 06 cf 74 bd 96 d1 06 3d ad 20 20 bd fe 55 62 bd
       -0.059767745 0.03291472 -0.039093662 -0.05525779
000120 88 d3 4e 3d b8 b3 b7 bd 14 10 49 3d c0 fc cd 3a
       0.0504947 -0.089698255 0.0490876 0.0015715584
000130 da 15 c1 3c 91 d7 e5 bc d3 ae 47 bc 90 38 72 3c
       0.02356999 -0.028056892 -0.012187677 0.014783993
000140 a7 7c 68 bd 62 a5 2a bd 81 6f 35 be e5 27 c6 bc
       -0.056759503 -0.041661628 -0.17718317 -0.024188945
000150 74 58 c6 bd b1 6b 98 bd 80 8c ac 3c 62 e9 a0 bd
       -0.0968484 -0.074424155 0.02106309 -0.07857014
000160 cb 39 51 bd 46 95 94 bd bc fc 44 bd 0c 81 21 bd
       -0.051080506 -0.07255034 -0.04809259 -0.03942971
000170 6d 12 16 bd a0 da 8e bc d5 9c 62 bd c9 3f 98 3d
       -0.036638666 -0.017438233 -0.055325348 0.07434041
000180 73 5e 54 3d 68 ea 35 3d 9f dd 34 3d e4 a6 99 bc
       0.051847886 0.044413 0.044156667 -0.018756337
000190 a2 d8 55 bb bb 21 09 3e 15 7c ab bc b3 d1 82 bd
       -0.0032630344 0.13391773 -0.02093319 -0.06387653
0001a0 53 ff 38 be 49 74 4c bd cc f0 66 3c fb cf 84 3d
       -0.18066148 -0.049915586 0.014095496 0.064849816
0001b0 07 5a 0e bd 4d d2 44 bd 61 ea 89 bd c1 7e c9 3c
       -0.034753826 -0.04805212 -0.06734157 0.024596574
0001c0 af 7b 2c bc 53 e9 22 3c 40 26 66 bc 9b 74 ae bd
       -0.010527535 0.009943324 -0.014047205 -0.085183345
0001d0 df 32 50 bd 5a 80 b8 3c 3e b6 f2 bc a0 36 20 3d
       -0.050829764 0.02252214 -0.029627915 0.039114594
0001e0 25 aa 67 3d 4d 5c 40 bd c8 98 f8 3c d8 30 26 3c
       0.056558747 -0.046963025 0.03034629 0.010143481
0001f0 2d f6 56 3b a0 c7 f5 3d 04 d1 e8 3d 17 0f cd 3d
       0.003280054 0.12000966 0.113679916 0.10012644
000200 ae 5e 88 bc e5 eb 7e bd 8e 21 1f 3e 62 ab 3b 3d
       -0.01664671 -0.062236685 0.15540144 0.04581774
000210 94 f7 e0 bd 37 b1 03 3e 0d 07 05 3c d9 b3 1d 3d
       -0.10984722 0.12860571 0.008119357 0.038501594
000220 3c 01 ca 3d 13 03 b0 bc d2 76 e0 3c bf 88 18 3c
       0.09863517 -0.02148584 0.027400408 0.009309947
000230 e3 81 25 bd 52 ed 10 3e 46 cf 6a bd ac 98 56 bd
       -0.040407073 0.1415303 -0.057326578 -0.052391693
000240 c8 b5 e4 bc b5 57 5a bb 10 0c 35 3d 69 74 00 bc
       -0.027918711 -0.0033316438 0.044200957 -0.007840254
000250 fe aa 10 3e 1e 36 dd bb 73 b7 93 bd 7a f2 d8 3d
       0.14127728 -0.006750836 -0.072127245 0.10593124
000260 bf c5 a0 3d 13 e9 0e bd d8 37 49 3d 13 13 15 3d
       0.07850217 -0.034890246 0.049125522 0.036395144
000270 e6 e0 20 3d 30 ed 19 bd 9b e1 8a bc 9c 29 09 3e
       0.03927698 -0.037579715 -0.01695328 0.13394779
000280 69 53 8e 3d 4c 08 6f bd 8e 22 23 bd 24 da a4 bd
       0.06949503 -0.058357522 -0.039827876 -0.080494195
000290 3a 4a 26 3e 9d 96 c7 3c 99 9b 58 bd 22 be d9 3d
       0.16239253 0.02436381 -0.052882764 0.10631968
0002a0 14 8e 09 bd d5 79 83 bc f2 34 9e bd ea 97 27 3e
       -0.033582762 -0.016049305 -0.07724942 0.16366544
0002b0 bd fd c3 3c 29 e3 2f 3d aa 93 04 39 5b 1f 19 3d
       0.023924703 0.042941246 0.0001264351 0.03738342
0002c0 45 4f f6 bc fb 68 03 3d 79 a4 26 be 27 be a5 bc
       -0.030067096 0.03208254 -0.16273679 -0.020232273
0002d0 b9 2b b0 bc 93 73 0e 3d 90 39 7e 3c ab d3 f3 bc
       -0.021505224 0.03477819 0.015516654 -0.029764017
0002e0 a5 b4 d5 bc 6d b8 b6 3d b3 e7 4f bd 7f c2 9a bd
       -0.026087115 0.08921895 -0.050758075 -0.075566284
0002f0 17 a7 bd ba 8c 8e 4d 3b a6 af 06 3d ba 0e ff 3d
       -0.0014469352 0.0031365482 0.032882355 0.12453981
000300 2b dd 1d 3d cc f5 58 3d 20 c9 4a bc 3b a0 f8 bb
       0.038541 0.052968785 -0.0123770535 -0.0075874603
000310 7c 53 a6 3d cc a7 33 3e 6f 1f 3b 3c 07 5b 2f 3b
       0.08121392 0.17544478 0.011421069 0.0026757137
000320 bc 01 46 be 17 61 e3 bc da 34 c7 bd 43 92 3f 3d
       -0.19336599 -0.027756257 -0.097268775 0.046770345
000330 d2 20 39 be 0d 05 0a bd 1b c4 21 3d 54 f1 26 bd
       -0.18078926 -0.033696223 0.03949366 -0.040757492
000340 c4 df 56 bc 58 96 a2 3d b8 49 70 3e 1b 0a c5 39
       -0.013114873 0.07938832 0.23465621 0.00037582297
000350 07 68 2d be 68 b3 1f 3e 46 e4 06 3d 7d 2f e8 bc
       -0.16934215 0.15595782 0.032932542 -0.028342957
000360 d6 56 8b 3c f7 ba 07 3e f8 e9 6d bd 66 71 b7 bd
       0.01700918 0.13254915 -0.058084458 -0.08957176
000370 ee 8f 42 bc 74 bb 86 bd 7a 5e eb bc 6f 85 45 3d
       -0.011875136 -0.065787226 -0.028731573 0.048222955
000380 b6 f8 60 bd d9 89 7b bc f7 c9 1e 3d eb 3a e8 3c
       -0.05492469 -0.01535269 0.038766827 0.028348407
000390 99 4f 9d bc cf ea b6 3c a3 21 ca 3d cf e0 63 3a
       -0.019202994 0.022328762 0.09869697 0.0008692862
0003a0 5c ab 4d be dd fb b0 3b 23 ec bc 3d 11 5d 07 bd
       -0.200849 0.005401118 0.09224727 -0.03304774
0003b0 7f 0b 84 be 30 59 24 be cb 8f 5e 3d a9 91 5a 3d
       -0.2579002 -0.16049647 0.05433635 0.05336157
0003c0 56 ae 58 bb 76 62 43 bd 66 c8 14 3d e5 92 79 bc
       -0.0033062897 -0.04770132 0.036323927 -0.015232776
0003d0 80 5b 64 bd 0f 9e 31 bd d8 87 3a 3d 48 8d 6f bd
       -0.055751324 -0.043363627 0.045539707 -0.058484346
0003e0 fd b9 2c bd ce a6 61 3c e1 c0 31 bd 32 7a 59 3c
       -0.04216956 0.0137726795 -0.043396834 0.013273763
0003f0 0e 1c c5 3d c0 d2 a9 bd df 8c 3b 3d 57 39 83 3d
       0.09624492 -0.082921505 0.045788642 0.06407421

layer2.bias f4 [128]
000000 ee 6a 6d 3e 5d 38 f1 3e f5 83 07 be 67 1b c3 3e
       0.23185322 0.47113314 -0.13233931 0.38106844
000010 24 db b2 3d 3c 3c 89 3d a6 ac 5d be de 95 78 3d
       0.08733204 0.06700942 -0.21647891 0.0606898
000020 cb 75 5a 3b d6 8e cc bd 65 13 b2 bb 4a 29 35 bd
       0.003333437 -0.09988181 -0.005434441 -0.04422883
000030 15 1e da 3d 9f 29 15 3e 35 57 ce bd 6e a2 f9 b8
       0.10650269 0.14566658 -0.10075227 -0.000119035
000040 28 7a 9c be 4c c7 57 3c 57 50 9c bd 9b 06 fb bc
       -0.30561948 0.013170075 -0.07632511 -0.030642798
000050 c4 1e 97 3c 54 b9 72 be 4e b1 e0 3d 60 ac 4b 3d
       0.018447287 -0.2370351 0.10971318 0.049724936
000060 0e 4f c9 bd a5 09 39 3c c4 c8 1b 3e 17 49 a7 bc
       -0.098295316 0.011293803 0.15213305 -0.020420594
000070 c4 34 5f 3e 16 53 e0 3e 0b 58 e3 bd 3e dc 1c bc
       0.21797472 0.4381339 -0.11100777 -0.009573994
000080 38 4e c6 bd 0b 63 84 bc 03 db 98 be 88 e8 25 3e
       -0.09682888 -0.016160509 -0.29854593 0.16201985
000090 28 ff 62 be 44 e6 1a be 5b a8 10 bc 4a 8b 8b 3d
       -0.22167647 -0.15126902 -0.008829202 0.06813677
0000a0 dc 6e fd bd 2d ef d1 3d c9 7c ba 3d c2 57 de bd
       -0.123746604 0.10250697 0.09105832 -0.10856582
0000b0 c6 48 a0 3e e7 8e 8c 3e 0c 53 c6 3d 0d 9b 16 3e
       0.31305522 0.27452776 0.09683809 0.14707585
0000c0 65 4c 90 be 20 72 b0 3c 86 a7 e8 b9 97 57 1f be
       -0.28183284 0.021538794 -0.00044375303 -0.15560757
0000d0 eb 0d f9 3d 0a be a4 3d 0d 0c 2c 3d 67 42 b6 3e
       0.12160858 0.080440596 0.04200368 0.35597536
0000e0 65 c6 09 bd cd 7f 40 be 94 d9 be bd 2a 22 95 3c
       -0.03363647 -0.18798752 -0.093188435 0.018204767
0000f0 fe b5 0f be 29 04 a7 3e e0 2d 95 bd 5a 3f 8e bd
       -0.14034268 0.3262036 -0.072841406 -0.06945677
000100 06 74 31 3e 87 19 2f 3e 89 f3 87 3c dc 2c 02 3d
       0.17329416 0.17099582 0.016595619 0.031781062
000110 6e fc 22 3e 16 c4 ca 3d e1 5c 52 3d a8 c3 16 be
       0.15916607 0.09900682 0.051358107 -0.14723074
000120 61 9d 55 bd 77 b2 ba 3e e9 89 0a 3e 3f 6e 3f be
       -0.05215204 0.36464283 0.13529171 -0.186944
000130 6e ac 7f 3e 9f cf f3 3d f5 55 55 3d 5c f2 81 bd
       0.2496812 0.11904835 0.05208393 -0.063450545
000140 79 f6 2f bd 62 46 e3 3c 85 02 8a be 6e ec 98 be
       -0.042959664 0.027743522 -0.26955047 -0.29867882
000150 de 00 d1 3e 61 7e 95 bd db c3 76 bd c5 e6 2a 3d
       0.40820974 -0.072994955 -0.060245376 0.041723985
000160 dd c6 38 bd 92 d0 e3 bc 7d 05 c8 bd da 03 93 bd
       -0.045111526 -0.027809415 -0.09766672 -0.07178469
000170 88 bf 81 bd 8f 9b fd 3d 28 e2 3d 3e df 50 dc 3d
       -0.0633536 0.12383186 0.18543303 0.107576124
000180 48 a1 ef 3d 3b 9b 82 3c 17 ed a8 3d ba 8f cd 3e
       0.11700684 0.01594316 0.08248346 0.40148717
000190 10 c4 a2 3e 1a 4c 2b 3e 8e f4 ce be 12 57 63 bd
       0.3179021 0.16728249 -0.40420955 -0.05550296
0001a0 8b d1 ac 3d de 1f 33 3e 86 68 60 bb 76 b3 25 3e
       0.08438405 0.17492625 -0.0034241988 0.1618174
0001b0 74 8b 29 3e fb 81 c4 be f7 5b 5b 3e 31 c5 40 be
       0.16557103 -0.38380417 0.214218 -0.18825223
0001c0 97 fa bf 3d c2 3f be 3c d4 a8 b1 bb da a3 f0 bc
       0.09373968 0.023223761 -0.005421737 -0.029375006
0001d0 fa a8 e3 3d ae 7c c0 3c 7e 94 1b 3d ac 6c f1 3d
       0.11116214 0.023496952 0.03798341 0.11788306
0001e0 7a ce 90 bd f0 8f 9c be d5 11 fc 3e ae a0 da 3d
       -0.07070632 -0.30578566 0.49232355 0.106751785
0001f0 e4 a8 29 3e 89 a7 83 be 4a 1f 78 3e 36 3e 06 be
       0.16568333 -0.25713757 0.24230686 -0.13109669

layer3.weight f4 [5, 128]
000000 5d 6d 8b 3d 8a be 15 3e d2 be 3c be 43 1f 84 be
       0.06807969 0.14623466 -0.18432167 -0.258051
000010 3c 1f e9 bd fd 91 37 3e 55 99 d3 bd f3 aa 9e bc
       -0.113829106 0.17926784 -0.1033198 -0.019368624
000020 ea 42 9e bd 81 ba 40 bd d2 72 c5 ba 93 8e ce bd
       -0.077276066 -0.047052864 -0.0015064126 -0.100857876
000030 01 a3 30 be dc 32 0f be 7e 25 9e be 7e 75 84 bd
       -0.17249681 -0.13984245 -0.3088798 -0.06467722
000040 f4 cb e0 bd 6c 59 c6 bd de 40 c5 3d b4 37 56 bd
       -0.10976401 -0.096850246 0.09631513 -0.052299216
000050 77 5e 26 bd bc 6a c8 bd 40 94 e9 bd 22 7f bd bd
       -0.040617432 -0.09785983 -0.114052296 -0.09252764
000060 b4 fe e0 3d 89 30 ec 3d e3 49 9e 3d bb 50 13 3e
       0.10986081 0.11532695 0.077289365 0.14386265
000070 4d d8 d0 bd dc 71 c2 3d 1d 6f 18 be 4d e2 13 bb
       -0.10197506 0.09494373 -0.14886136 -0.0022565306
000080 1a 85 25 bd 88 53 d6 3d 03 40 f8 3c 00 a0 48 bd
       -0.04041014 0.10465151 0.03030396 -0.048980713
000090 01 b1 b1 3d 35 16 80 bd 4b 32 5b be f1 ac 04 bc
       0.08676339 -0.06254236 -0.21405904 -0.008097873
0000a0 94 18 7e 3d 38 ca 10 3e db cc 7b 3d d3 b9 97 bd
       0.06203516 0.1413964 0.061474662 -0.0740849
0000b0 4a e6 bc 3c d2 d8 11 3e 03 49 c9 bd 17 11 15 bd
       0.02305903 0.14242867 -0.09828379 -0.03639325
0000c0 b5 7d 09 3e 37 79 4a bd 4c 04 cd 3d fa b8 95 bd
       0.1342686 -0.049432006 0.10010585 -0.07310672
0000d0 49 e9 82 bd 07 c1 3f bd 78 d2 d1 bd 02 72 3f 3e
       -0.06392152 -0.046814945 -0.10245222 0.18695834
0000e0 7b e7 30 bd 57 79 06 be c6 2d 1d be 6a 24 26 3e
       -0.043189507 -0.13132225 -0.15349492 0.16224828
0000f0 1a b4 cb 3c 67 00 db 3c 41 bb 5f bd ea 1c 63 bd
       0.024866153 0.02673359 -0.05462194 -0.055447496
000100 58 93 21 3e 36 7d ef bd 48 20 08 be 74 31 02 be
       0.15778863 -0.11693804 -0.13293564 -0.12714177
000110 4b 7a ec bd 44 d3 fb bd 0b eb 9d bd 13 72 c0 3d
       -0.11546763 -0.12296155 -0.077108465 0.09396758
000120 cc 6c 05 be 35 a0 1a bd bf 10 00 be f3 c8 96 3d
       -0.13029784 -0.03775044 -0.12506388 0.07362547
000130 66 47 05 be d4 76 1e bc ec 07 18 3e 87 55 8d bc
       -0.13015518 -0.0096718855 0.14846772 -0.017252697
000140 ac a0 17 3e f9 99 05 3d 73 bd 51 3d 0b 24 bb bc
       0.14807385 0.032617543 0.051206063 -0.022844335
000150 66 c8 88 3e f4 c1 c6 3d 9b d8 ff bd 10 26 ad 3d
       0.26715392 0.097049624 -0.12492486 0.084545255
000160 70 33 38 3d e5 40 9f be e4 eb 6b bd 16 52 cb bd
       0.04497093 -0.31104198 -0.05759801 -0.09927766
000170 28 a0 19 3e b7 e7 e2 bd 34 6a 07 3e bb c1 48 be
       0.15002501 -0.11079352 0.13224107 -0.19605152
000180 2e 14 a8 3d 39 b5 a8 bd 8d 1d 03 be 8d bc 28 3d
       0.08206974 -0.082376905 -0.12804241 0.04119544
000190 a0 91 97 be 70 c8 c1 bd ea f4 27 be 7f 78 36 be
       -0.2960329 -0.094620585 -0.16402021 -0.17819403
0001a0 2a 1d 02 be 42 b3 66 be da 39 1e be c7 e1 b1 3d
       -0.12706438 -0.22529319 -0.15451756 0.08685642
0001b0 fd 08 b3 bc b1 09 16 bd 49 2a b2 bd fc f5 8b bd
       -0.021854872 -0.036630336 -0.086994715 -0.06834027
0001c0 2b f6 9a bd cc 33 d1 bd 4f f2 f9 3d 85 99 99 3d
       -0.07566484 -0.102149576 0.1220442 0.07499985
0001d0 73 8d ee 3d a4 fc 4b 3c ce af 95 bc e1 a7 04 bd
       0.11648073 0.012450371 -0.018272307 -0.032386664
0001e0 be 24 15 3d 24 f9 2d 3e a6 7a 96 3d 6f b1 2b 3e
       0.036411993 0.16989571 0.07347612 0.16766904
0001f0 e2 dd f3 3d 4a c3 f2 bd 4b 96 62 be cc ec d2 bd
       0.11907555 -0.11853655 -0.22127645 -0.10299072
000200 04 75 0c bc 6b 2d 26 3e b8 0a 2d be 66 a9 8a be
       -0.008572821 0.16228263 -0.1689862 -0.27082366
000210 2d 06 f1 bd 69 72 2d 3e d2 ef e4 3c 09 d4 7c bd
       -0.11768756 0.16938175 0.027946386 -0.06172565
000220 3c 3c 46 bb 8a 5e f4 3c 9f c8 94 3b 72 9b 81 bd
       -0.0030248305 0.029830236 0.0045405175 -0.06328477
000230 82 38 36 be f0 94 e7 bd 0a 79 9b be 92 db 88 bd
       -0.17794994 -0.113077044 -0.30365783 -0.06682505
000240 70 f9 44 be ff f0 fb bd 18 d3 0f 3e 09 a9 a3 bd
       -0.19235778 -0.12301826 0.1404537 -0.07991225
000250 57 db a1 3b 74 fd cc bd 20 a0 af bd 09 69 93 bd
       0.0049394774 -0.1000928 -0.08575463 -0.07197768
000260 1f 8f 32 3e 45 41 bb 3d 76 98 b4 ba 71 d5 df 3d
       0.17437409 0.091433086 -0.0013778347 0.109293826
000270 95 ac 3a be 79 0a fb 3d 98 32 a4 bd 3d b5 47 3a
       -0.18229897 0.12257857 -0.080174625 0.0007618254
000280 ef 10 9c bc ae b3 bd 3d 61 bb fc 3d ed e5 09 be
       -0.019051043 0.09262787 0.12340427 -0.13466616
000290 28 7f bd 3d bf 57 70 bd 43 f2 1d be 57 c1 fa 3b
       0.09252769 -0.05867743 -0.15424447 0.0076524424
0002a0 d9 cb ab bd 55 81 0b 3e 30 0c a0 3d 06 6e 66 bd
       -0.0838849 0.13623555 0.078148246 -0.05625727
0002b0 3e 30 e4 3d 81 7b 20 3d 3b 58 a6 bd 78 eb 09 bd
       0.11142014 0.039180283 -0.081222974 -0.033671826
0002c0 aa 12 23 3e 93 9b 98 bd 78 e7 e5 3d 31 3e e1 bd
       0.15925089 -0.074515484 0.1122579 -0.1099819
0002d0 6d 7d d5 bd 25 ae 64 3b 26 a0 06 bd 5f f4 50 3e
       -0.10424314 0.0034893837 -0.032867573 0.2040572
0002e0 86 16 27 bd 68 97 f1 bd a5 ab 13 be b7 3b 03 3e
       -0.040792964 -0.117964566 -0.14420946 0.12815748
0002f0 79 3b a3 bd a6 d7 e6 3d c5 0f 14 3c 60 e7 2d bd
       -0.07970328 0.112716004 0.009036963 -0.042456985
000300 a5 11 04 3e 28 83 21 be ca b6 18 be f9 4a 20 be
       0.12897356 -0.15772688 -0.14913478 -0.156536
000310 b8 11 be bd 79 5a 1a be 41 3e cf bc 3c 61 d3 3d
       -0.09280723 -0.15073575 -0.02529824 0.1032128
000320 71 06 11 be 99 f1 ee 3d 1d 4b b5 bd 8c 4d a1 3d
       -0.14162613 0.11667175 -0.08852217 0.07876119
000330 be 15 06 be 91 9b 2b bd fb 21 c2 3d b8 70 76 bd
       -0.13094231 -0.041896407 0.094791375 -0.06016609
000340 de 31 0a 3e 9e 4e 93 bd 2a 59 dd 3d 3b 5a e2 3d
       0.13495585 -0.071927294 0.10808022 0.11052366
000350 0f 79 81 3e 00 73 b1 3d 26 2d a6 bd d4 94 d3 3d
       0.25287673 0.08664513 -0.0811408 0.10331121
000360 75 07 01 bd da 55 af be 0a 3e bd 3d 9b 01 8c bc
       -0.031501252 -0.34245187 0.09240349 -0.01709061
000370 b0 30 83 3d c4 b8 0d be 99 14 de 3d 30 45 49 be
       0.06405771 -0.13840014 0.108437724 -0.19655299
000380 79 c8 f5 3d 67 63 e6 bd 7c 96 e0 bd 00 fb 1e 3e
       0.12001128 -0.11249428 -0.109662026 0.15525436
000390 e6 d0 98 be ac 74 0c be e2 de 41 be 73 c6 2b be
       -0.29846877 -0.13716382 -0.1893268 -0.16774921
0003a0 fc a8 cc bd 55 1e 2d be 1c 41 f6 bd 99 36 a9 3d
       -0.09993169 -0.16906102 -0.120241374 0.08262367
0003b0 0b ae da bd 4e fc e1 bd b5 81 e4 bd bf 5f 8f 3c
       -0.10677727 -0.110344514 -0.11157552 0.01750171
0003c0 d4 ae a5 bd 7c 87 34 bd f9 4e 45 3d 64 8f d5 3d
       -0.080899864 -0.04407452 0.048171017 0.1042774
0003d0 32 ee c1 3d d9 e0 16 bd eb 66 57 bd 31 55 97 bd
       0.0946926 -0.036835525 -0.052588385 -0.07389296
0003e0 7a 79 5a 3c 73 71 2a 3e 27 03 bc 3d f9 31 ec 3d
       0.013334626 0.1664484 0.09180289 0.11532969
0003f0 d3 2c de 3d c3 6b 30 be 95 ed 5d be d5 e9 24 be
       0.10848393 -0.17228608 -0.21672662 -0.16104825

layer3.bias f4 [5]
000000 23 f1 8a 3d 6f 94 31 bc 78 10 99 3c fe 12 26 3d
       0.067842744 -0.010838612 0.01868461 0.040545456
000010 0f 77 4e 3c
       0.012601628
