policy_net_adversary.pth (torch, 76042 bytes, 6 tensors)

layer1.weight f4 [128, 8]
0	0xbe3d9982	-0.1851559
1	0xbe80b107	-0.2513506
2	0xbced454b	-0.028963706
3	0xbe2968c1	-0.16543867
4	0xbdc9a83a	-0.0984654
5	0x3ecebbda	0.40377694
6	0x3d409528	0.047017246
7	0x3a826bb8	0.0009950316
8	0x3dcf2d73	0.101160906
9	0xbe460289	-0.19336905
10	0x3e9beef6	0.3045575
11	0xbea16d04	-0.31528485
12	0xbd8784e2	-0.06617142
13	0x3dbc3014	0.09188858
14	0x3e1b2e2b	0.1515433
15	0xbdcf1047	-0.101105265
16	0x3eec073f	0.46099278
17	0x3e89b173	0.26893196
18	0x3d7b28e9	0.06131831
19	0x3e6b9d7c	0.23009294
20	0x3ddc7d2c	0.10766062
21	0xbe133bcf	-0.14378284
22	0x3df26ca5	0.118371285
23	0xbde54abd	-0.11195896
24	0xbe97fb5d	-0.29683962
25	0x3e6e6432	0.23280409
26	0xbdeef135	-0.116671
27	0x3e4aa517	0.1978954
28	0xbe1a7aad	-0.1508586
29	0xbe9b8998	-0.30378413
30	0xbbb6b234	-0.0055754427
31	0xbe4dc0ad	-0.20093031
32	0xbe448d84	-0.19194609
33	0xbdf1b3d2	-0.11801876
34	0x3e842fdf	0.25817773
35	0x3e058073	0.1303728
36	0x3e95cfee	0.292602
37	0x3e63386f	0.22189496
38	0xbddd0e7b	-0.107937776
39	0xbe948c2a	-0.29013187
40	0x3e3adc23	0.18248038
41	0xbe8f8179	-0.28028467
42	0x3e54309d	0.2072167
43	0xbe895556	-0.2682292
44	0xbce19613	-0.027537381
45	0xbdf24076	-0.11828701
46	0x3e798e6d	0.24370737
47	0xbe8ba186	-0.2727167
48	0x3e8b572b	0.2721494
49	0x3e4d5de6	0.2005535
50	0xbee3b492	-0.44473702
51	0xbe6fdde4	-0.23424488
52	0xbe07e6ea	-0.1327168
53	0xbdaedce6	-0.08538227
54	0xbe6dbab6	-0.23215756
55	0x3ec119a1	0.37714866
56	0xbd11c97e	-0.03559255
57	0x3f762698	0.9615264
58	0xb9ef2af5	-0.00045617638
59	0xbc12c188	-0.008957274
60	0xbe833669	-0.2562745
61	0x3e0a7da2	0.13524488
62	0x3d1c239b	0.038119894
63	0x3c6b603d	0.014366207
64	0xbec55e27	-0.38548395
65	0xbd90a523	-0.07062747
66	0xbe1a97c1	-0.15096952
67	0x3e032d8c	0.12810344
68	0xbe490a52	-0.19632843
69	0x3ec02c79	0.3753393
70	0xbe466793	-0.19375448
71	0x3e315e81	0.17321207
72	0xbec3ae70	-0.38219023
73	0xbe7185ea	-0.2358624
74	0xbe063d66	-0.13109359
75	0x3da3868f	0.079846494
76	0xbeda8071	-0.42676118
77	0x3c9a4b31	0.018834682
78	0x3d969069	0.07351763
79	0xbe4e0cf7	-0.20122133
80	0x3e16b8ab	0.14718883
81	0x3eb9f909	0.3632281
82	0x3e9ae438	0.30252242
83	0xbe5e26d0	-0.21694493
84	0xbdb012d7	-0.085973434
85	0xbe606365	-0.21912916
86	0xbe194eda	-0.14971486
87	0x3e4a2a4c	0.19742697
88	0x3ee0768a	0.43840438
89	0x3ec94669	0.3931153
90	0x3e4bc7df	0.19900464
91	0xbe704cc7	-0.23466788
92	0xbe6a969e	-0.22909018
93	0x3deddfac	0.11614928
94	0xbe23ebcb	-0.16007917
95	0xbe948260	-0.29005718
96	0xbf096056	-0.5366262
97	0xbeaaebaa	-0.33382922
98	0x3e616af0	0.2201345
99	0xbd31bddc	-0.043393955
100	0xbddc96c3	-0.10770943
101	0x3d8a0eae	0.06741081
102	0xbd90615f	-0.07049822
103	0xbe81257e	-0.25223917
104	0x3cf1af1a	0.02950244
105	0xbe8bf427	-0.2733471
106	0x3e9408f4	0.2891308
107	0x3e8206dd	0.2539586
108	0xbe1d5679	-0.15365018
109	0x3ea0baec	0.3139261
110	0xbe9f7a32	-0.31147915
111	0xbdef3c2a	-0.11681397
112	0xbcaabb22	-0.020841185
113	0x3e13de77	0.14440332
114	0xbe2b165f	-0.16707753
115	0x3e79ecad	0.24406691
116	0x3dc1fc66	0.09471969
117	0x3e66c6b8	0.22536743
118	0x3e600d68	0.21880114
119	0xbe801a52	-0.2502008
120	0x3e7cd887	0.24691974
121	0xbe3debe3	-0.18547015
122	0xbe93a385	-0.28835693
123	0xbd5a989e	-0.053368203
124	0xbecbf615	-0.39836183
125	0x3e054acf	0.13016818
126	0x3ea47c59	0.3212612
127	0xbe617cba	-0.22020236
128	0x3e030dad	0.12798186
129	0x3d81b5e4	0.06333521
130	0x3e6a2123	0.22864203
131	0x3e4ba801	0.19888307
132	0x3deaf14c	0.11471805
133	0xbd923ddd	-0.07140706
134	0x3de30cac	0.11086401
135	0xbe87b52b	-0.26505408
136	0x3ed496e6	0.41521376
137	0x3dc636cf	0.09678423
138	0x3d94fc46	0.0727468
139	0xbe84a996	-0.25910634
140	0x3e839c19	0.2570503
141	0xbd09a541	-0.033604864
142	0xbe650294	-0.22364265
143	0x3d953b5f	0.07286715
144	0x3d6f9c64	0.058498755
145	0xbc6f556f	-0.014607771
146	0xbea8b00d	-0.32946816
147	0xbde334c2	-0.11094047
148	0x3e57ed13	0.2108653
149	0xbe5960c2	-0.21228316
150	0xbe68a23a	-0.22718135
151	0xbe8b1385	-0.2716333
152	0x3e6bcbb3	0.23026924
153	0xbe0b5612	-0.13607052
154	0xbe9ed09e	-0.31018537
155	0xbe5b870c	-0.21438235
156	0x3e95d9a9	0.29267624
157	0xbddb15a9	-0.10697491
158	0xbe09a36b	-0.13441245
159	0x3e95f90e	0.29291576
160	0xbe615e9a	-0.22008744
161	0x3e453274	0.19257528
162	0x3e555a57	0.20835243
163	0xbdc7a0ca	-0.09747465
164	0x3e7d1df4	0.24718457
165	0x3e01f19f	0.12689827
166	0xbe5fc39f	-0.21851967
167	0x3e8b90b6	0.27258843
168	0x3d8878f7	0.06663697
169	0xbe6248a0	-0.22098017
170	0xbebd6d26	-0.36997336
171	0xbc9ae535	-0.018908123
172	0xbd3558e6	-0.044274233
173	0x3e13851c	0.14406246
174	0xbe8c33c5	-0.27383247
175	0xbe896029	-0.26831177
176	0x3eac1a05	0.336136
177	0x3efeff61	0.49804214
178	0x3ebfd6a0	0.37468433
179	0xbca4d87c	-0.020122759
180	0x3e39cc5e	0.18144366
181	0x3e237518	0.15962636
182	0x3dfda6e2	0.12385346
183	0xbd9ed3fc	-0.077552766
184	0x3eb32096	0.349858
185	0xbecf584f	-0.40497062
186	0x3dc4dad7	0.09612053
187	0x3d946a08	0.07246786
188	0x3e47c369	0.19508137
189	0xbde82d49	-0.113367625
190	0x3dfeb604	0.124370605
191	0xbe664e6c	-0.22490853
192	0xbeb464bf	-0.35233113
193	0x3ead22ed	0.3381571
194	0x3ec7c138	0.39014602
195	0xbe77215a	-0.24133816
196	0xbd1d55cb	-0.038411897
197	0xbe95cd2f	-0.29258105
198	0x3d6ba490	0.057529986
199	0xbe5f883f	-0.21829318
200	0x3ed03c6a	0.40671092
201	0x3d3f3a59	0.046686504
202	0xbdbd6728	-0.09248191
203	0x3e5e5086	0.21710405
204	0xbeba8400	-0.36428833
205	0x3eba3523	0.36368665
206	0xbe3d739f	-0.18501137
207	0xbe11fb0f	-0.14255928
208	0xbe0a4976	-0.13504586
209	0xbeaa66ad	-0.3328146
210	0x3e565300	0.209301
211	0x3e708699	0.23488845
212	0xbe849de1	-0.25901702
213	0x3aa0a468	0.0012256028
214	0x3e3be08a	0.18347374
215	0x3ec10e10	0.3770604
216	0x3ea1a73e	0.31572908
217	0xbe0069ee	-0.12540409
218	0xba7a83e7	-0.0009556398
219	0xbe4fe589	-0.20302404
220	0xbe6f2176	-0.23352608
221	0xbdd46e0a	-0.10372551
222	0xbdc7a6f7	-0.09748643
223	0xbea54398	-0.32278132
224	0x3ea9ac63	0.33139333
225	0xbe60776f	-0.2192056
226	0x3e364140	0.17798328
227	0xbdaa950e	-0.08329211
228	0x3e1bcea9	0.15215553
229	0x3ea72f2d	0.3265318
230	0x3e2965db	0.16542761
231	0xbdf749d7	-0.12074631
232	0xbe015e81	-0.12633707
233	0xbed17667	-0.40910646
234	0xbdc50a4b	-0.09621104
235	0x3e6fdf33	0.23424987
236	0x3e126459	0.14296092
237	0xbe890740	-0.26763344
238	0xbd97dbbf	-0.0741496
239	0x3e49086f	0.19632123
240	0x3e8e7e8c	0.27830923
241	0x3e8ce3ab	0.27517447
242	0xbdf294bc	-0.11844775
243	0x3e395dea	0.18102232
244	0x3ea8d86f	0.32977626
245	0x3e8518c2	0.2599545
246	0xbe5da55e	-0.21645114
247	0x3e2bd041	0.16778661
248	0xbe18c64e	-0.14919397
249	0x3d781cef	0.06057447
250	0x3eadd0a5	0.33948246
251	0xbedd2a75	-0.43196455
252	0x3df39c63	0.11895063
253	0xbe70c847	-0.235139
254	0xbc9862e6	-0.018601846
255	0xbd7e42ca	-0.062075414

layer1.bias f4 [128]
0	0x3e323c49	0.1740581
1	0x3e9d02ef	0.306663
2	0x3e331a5d	0.17490526
3	0x3dc2fb60	0.09520602
4	0xbe960574	-0.29301035
5	0x3ee93f05	0.45555893
6	0xbe38b5ab	-0.18038051
7	0x3eacf2c6	0.3377897
8	0xbf1700ec	-0.5898578
9	0x3c9399db	0.0180177
10	0xbf1299de	-0.5726603
11	0xbb2e6179	-0.0026608391
12	0x3e633d1b	0.22191279
13	0xbf2173d3	-0.6306736
14	0xbdf9803b	-0.12182661
15	0x3d2ed740	0.042685747
16	0xbe8266a8	-0.25468946
17	0x3f0450a5	0.51685554
18	0xbb9fd3af	-0.0048775296
19	0x3f255abb	0.6459157
20	0x3cc5d980	0.024151564
21	0xbe84a92f	-0.25910327
22	0x3d5bde03	0.053678524
23	0x3e5ec4ca	0.21754757
24	0x3f3b2fd3	0.7311985
25	0xbd435d2a	-0.04769627
26	0x3d97bc5c	0.074089736
27	0x3dbfc567	0.093638234
28	0x3e6e569e	0.2327523
29	0x3cdea2c5	0.027177224
30	0xbdb76fd7	-0.08956879
31	0x3f2dbc15	0.67865115
32	0x3f34c584	0.70613885
33	0x3f106966	0.56410825
34	0x3f2db17e	0.67848957
35	0xbcd3c3bd	-0.025850171
36	0x3eccf241	0.40028575
37	0x3f71b4d5	0.9441655
38	0x3f20b96f	0.6278295
39	0xbf160a80	-0.5860977
40	0xbc197748	-0.009366818
41	0x3e7e497c	0.2483272
42	0x3f10540f	0.56378263
43	0x3eb6b150	0.35682154
44	0x3df85ae6	0.121267125
45	0x3f303504	0.68830895
46	0x3e0a6a8a	0.13517204
47	0x3f6c5a3e	0.923252
48	0xbd27996b	-0.040917795
49	0x3eec504e	0.46155018
50	0xbebdb259	-0.3705013
51	0x3f164205	0.5869449
52	0x3ed50edb	0.41612896
53	0x3ece8c89	0.40341595
54	0x3edc5275	0.4303166
55	0xbc088fd5	-0.0083350735
56	0xbe417528	-0.18892348
57	0x3e6c1204	0.23053747
58	0xbdb2a7a5	-0.08723382
59	0x3e2a35db	0.16622107
60	0x3a89c4a1	0.001051087
61	0x3ef84d7f	0.48496625
62	0x3eddae82	0.432972
63	0xbed4497a	-0.41462308
64	0xbe2a0c5d	-0.16606279
65	0xbea95784	-0.33074582
66	0xbd9ba3dc	-0.07599613
67	0x3dc7fd3d	0.09765098
68	0x3dbd80e9	0.09253103
69	0xbec53523	-0.38517103
70	0x3f103941	0.5633736
71	0x3f399d12	0.72505295
72	0x3f0e490a	0.555802
73	0x3ed6d698	0.41960597
74	0x3d146185	0.036225814
75	0x3eeed819	0.46649244
76	0xbed1b25b	-0.40956387
77	0xbde70187	-0.11279588
78	0x3f2129c1	0.62954336
79	0x3fa3eaa4	1.2805982
80	0xbf401af4	-0.7504113
81	0x3eaf4500	0.3423233
82	0xbddb9839	-0.107223935
83	0xbd598dd9	-0.053113792
84	0xbf068234	-0.52542424
85	0xbe3a807c	-0.18213075
86	0xbe79defd	-0.2440147
87	0xbe34e128	-0.17664015
88	0xbf020953	-0.5079548
89	0xbcf213a3	-0.02955038
90	0x3e568d30	0.20952296
91	0x3f118556	0.5684408
92	0x3eb7169f	0.35759446
93	0xbee590b1	-0.44836953
94	0x3bce9645	0.0063045346
95	0x3edf1d41	0.43577006
96	0x3e6d847e	0.23195073
97	0x3f62806a	0.88477194
98	0x3f0adbec	0.54241824
99	0xbeb18b83	-0.34676751
100	0x3f80608d	1.0029465
101	0xbdbfe30a	-0.09369476
102	0xbef12197	-0.4709594
103	0xbd4bb675	-0.04973455
104	0x3f5592f4	0.8342736
105	0x3ecde08b	0.40210375
106	0x3f5d3f0c	0.86424327
107	0xbe223be5	-0.1584316
108	0x3f1c5fe1	0.610838
109	0x3f1c97a5	0.6116889
110	0x3f0d4882	0.55188763
111	0x3baf0626	0.005341309
112	0x3f0dc1dd	0.55373937
113	0x3e734925	0.23758371
114	0x3eebdb6b	0.4606584
115	0x3dc3d8ae	0.09562813
116	0xbefa6796	-0.48907155
117	0x3f1515b1	0.58236223
118	0x3f570682	0.83994305
119	0x3eabc31c	0.33547294
120	0xbce9d57f	-0.028544186
121	0xbeb39185	-0.3507196
122	0x3def2343	0.116766475
123	0x3e5c3ef3	0.21508388
124	0x3db8cee6	0.09023838
125	0x3e402758	0.18765008
126	0xbf05fe4e	-0.52341163
127	0xbdaef1e9	-0.085422345

layer2.weight f4 [128, 128]
0	0xbd9265f7	-0.071483545
1	0x3d3307d2	0.04370863
2	0x3ca68ac8	0.020329848
3	0x3b8cbd7c	0.0042950492
4	0x3be0c755	0.0068596997
5	0xbd2b8d01	-0.04188252
6	0xbc2c71f8	-0.010525219
7	0x3e028a3e	0.12748048
8	0xbdc727d6	-0.09724395
9	0x3dc1a0ab	0.09454473
10	0xbd372528	-0.04471317
11	0x3d980c14	0.07424179
12	0xbd8d634a	-0.069037035
13	0xbd67482b	-0.05646531
14	0xbd05af03	-0.032637607
15	0xbc96dbef	-0.01841542
16	0xbd87f797	-0.06639021
17	0x3d3b210b	0.04568581
18	0x3d2f1f9f	0.042754766
19	0x3d9ce747	0.076613
20	0xbd0c17d9	-0.03420243
21	0xbd02e496	-0.031956278
22	0xbd66e14c	-0.056367204
23	0x3d437203	0.047716152
24	0xbdc155a4	-0.09440163
25	0xbd89b35f	-0.067236654
26	0xbd40169c	-0.046896562
27	0x3be3683d	0.0069399164
28	0xbd31ae06	-0.043378852
29	0x3cd4260b	0.025897047
30	0x3d7e339d	0.06206094
31	0x3d1be4f2	0.038060136
32	0x3c9615e7	0.01832099
33	0x3db6dc59	0.08928747
34	0xbcf34838	-0.029697523
35	0xbd11f792	-0.035636492
36	0x3c4cb8cd	0.012495232
37	0x3cf18725	0.029483387
38	0xbd768667	-0.06018677
39	0xbde2df3d	-0.110777356
40	0xbd76cee0	-0.060255885
41	0xbe15d03d	-0.14630218
42	0x3e5916cd	0.21200104
43	0x3cd32405	0.025774011
44	0x3d071e72	0.03298802
45	0x3d320505	0.04346182
46	0xbc8503f1	-0.016237231
47	0xbb13a680	-0.0022529662
48	0xbd090c01	-0.033458713
49	0x3d004a10	0.03132063
50	0xbc27bd5e	-0.01023802
51	0x3d2c80fb	0.042115193
52	0x3d2bb618	0.041921705
53	0x3c56864b	0.013093541
54	0xbd84e85b	-0.06489631
55	0xba6e2a92	-0.0009085323
56	0x3c8309d2	0.015995894
57	0xbd0b6efd	-0.034041394
58	0xbd73186e	-0.05934947
59	0xbe237737	-0.15963446
60	0xbdd4f46b	-0.103981815
61	0xbbc46abd	-0.0059941695
62	0xbd548270	-0.051882207
63	0x3d46703e	0.048446886
64	0x3c9b66e0	0.018969953
65	0xbd06e0ea	-0.03292934
66	0x3d631964	0.055444136
67	0x3cbf31ca	0.023339171
68	0x3c021095	0.007938524
69	0x3af2775a	0.0018498704
70	0xbd3f0ae8	-0.04664126
71	0x3c41550c	0.011800062
72	0xbcff1963	-0.031140035
73	0x3db272b4	0.08713284
74	0xbd647a4c	-0.055780694
75	0x3d8c3f2b	0.06847986
76	0xbdb8511a	-0.08999844
77	0x3ca42e11	0.020041497
78	0xbd9b4f12	-0.07583441
79	0x3da4f79d	0.08055041
80	0xbcb31e30	-0.02186498
81	0x3ce39687	0.027781738
82	0xbc87d837	-0.016582591
83	0x3d09e295	0.03366335
84	0x3d963ae3	0.073354505
85	0xbd45da7d	-0.04830407
86	0xbc3d105d	-0.011539546
87	0xbd558eef	-0.052138265
88	0x3d9057ee	0.07048021
89	0x3c95dbdb	0.018293312
90	0xbcddd6b5	-0.02707992
91	0x3e1b058c	0.15138835
92	0xba12058b	-0.0005570284
93	0x3ca8a5be	0.020586845
94	0xbdbbcbf1	-0.09169758
95	0x3d4ca88e	0.049965434
96	0x3c2f4174	0.010696758
97	0xbd8c5229	-0.06851608
98	0xbdbe7161	-0.09298969
99	0xbc9b6a63	-0.018971628
100	0x3da7a2f0	0.08185375
101	0xbd40d921	-0.04708207
102	0x3cb024ac	0.021501862
103	0x3d06a0d1	0.03286821
104	0xbe4be7bf	-0.19912623
105	0x3da2630c	0.07929048
106	0xbc9e8c2d	-0.01935395
107	0x3cf3f5e4	0.029780336
108	0xbdabc569	-0.083872624
109	0xbc0ae208	-0.008476742
110	0xbcff6d98	-0.031180188
111	0x3d2ae632	0.041723438
112	0xbd0e0730	-0.034674823
113	0xbdbab597	-0.09116667
114	0x3d7e8d8c	0.06214671
115	0x3d8749cc	0.066058725
116	0x3c250644	0.010072295
117	0x3b40a2b2	0.002939385
118	0x3dbf9729	0.093550034
119	0xbce4c138	-0.027924165
120	0xbd28c7fd	-0.04120635
121	0xbd16e9bc	-0.036844
122	0x3cc0018d	0.02343824
123	0x3cf5ad40	0.029989839
124	0xbd033e04	-0.032041565
125	0xbb8d6a75	-0.004315669
126	0x3c34e1d6	0.011040172
127	0x3d4f48be	0.05060648
128	0xbd763858	-0.060112327
129	0x3cd51b3b	0.026013961
130	0xbc882930	-0.016621202
131	0xbd821031	-0.063507445
132	0xbba4d717	-0.0050305235
133	0x3d86d5d3	0.065837525
134	0xbd7b2d13	-0.061322283
135	0x3d816fc1	0.063201435
136	0xbcdd0dc4	-0.026984103
137	0x3c6e0797	0.014528177
138	0xbd86c4f4	-0.065805346
139	0x3ce5f3db	0.02807038
140	0x3ca84dfa	0.020544995
141	0x3cd2012c	0.025635324
142	0xbd0ef1ed	-0.034898687
143	0x3d8d103d	0.06887863
144	0xbc93e951	-0.01805559
145	0x3da0c28e	0.07849608
146	0xbbb053c4	-0.0053810794
147	0xbcee2011	-0.029068025
148	0xbc9f991d	-0.01948219
149	0x3cb9b5fc	0.022669785
150	0xbd5f1cce	-0.05447083
151	0x3cfb30ba	0.030662883
152	0x3cb3af55	0.02193419
153	0x3c75b270	0.014996156
154	0xbcb33df4	-0.021880127
155	0xbc073164	-0.008251522
156	0x3d09ce02	0.03364373
157	0x3c1785f7	0.009248248
158	0x3c8714f0	0.016489476
159	0x3b7863fb	0.003790139
160	0x3e0818ea	0.13290754
161	0x3dea2e30	0.11434591
162	0xbc10a1aa	-0.008827606
163	0x3c0d6d04	0.008631948
164	0xbd8143a7	-0.06311732
165	0x3d94bb8e	0.07262336
166	0xbc5b61fe	-0.013390062
167	0xbdc445d8	-0.09583634
168	0xbced8228	-0.028992727
169	0xbc4b827f	-0.012421249
170	0x3deace08	0.114650786
171	0x3d4b6a32	0.049661823
172	0x3d9a4da0	0.07534337
173	0x3d360696	0.044439875
174	0x3d6c871b	0.057746034
175	0xbbf8c372	-0.0075916583
176	0x3b481946	0.0030532642
177	0x3dc82f75	0.09774677
178	0xbc40a20a	-0.011757383
179	0x3c86d680	0.016459703
180	0x3dcde312	0.10053076
181	0x3c73ceeb	0.014880876
182	0xbcd76b14	-0.026296176
183	0x3770afc2	1.4346037e-05
184	0x3d80e7f8	0.062942445
185	0x3bb12457	0.0054059434
186	0x3d372e76	0.044722043
187	0xbdc26255	-0.094914116
188	0xbc30b66d	-0.010785681
189	0xbc872280	-0.016495943
190	0x3d9f257b	0.07770821
191	0xbd86edb6	-0.065883085
192	0xbdbaa2c8	-0.09113079
193	0xbd9bdaca	-0.0761009
194	0x3d53c465	0.05170097
195	0x3c0110ae	0.007877512
196	0xba9c74ac	-0.0011936626
197	0xbc0f8d6a	-0.008761743
198	0x3d3e921b	0.046526056
199	0x3d85f51d	0.06540892
200	0x3d1e7661	0.038687114
201	0xbd2aae28	-0.041669995
202	0xbcd46aa4	-0.025929756
203	0x3d64a8d2	0.055825062
204	0x3c371083	0.01117337
205	0x3d7a9d66	0.061185263
206	0xbd571392	-0.052508898
207	0x3d95f325	0.07321767
208	0xbd22c94d	-0.039742757
209	0xbc591aa1	-0.013250978
210	0x3d9ae915	0.07563988
211	0xbcab2cc3	-0.020895367
212	0x3c0aef31	0.008479879
213	0xbd36da5e	-0.044641845
214	0xbd07e4f1	-0.03317732
215	0xbd2bd8c4	-0.04195477
216	0x3cfec94d	0.031101847
217	0xbd627394	-0.055286005
218	0xbdbb8e03	-0.09157946
219	0x3e436104	0.19079977
220	0x3db2d269	0.08731539
221	0x3d73c19d	0.059510816
222	0xbd55fc90	-0.052242815
223	0x3c2e81b1	0.010651038
224	0x3d9555d1	0.07291759
225	0xbc8a0c54	-0.016851582
226	0x3c378069	0.011200049
227	0x3d01fb38	0.03173372
228	0x3dc18ef4	0.09451094
229	0xbc97073f	-0.018436072
230	0xbd265c56	-0.040615402
231	0x3d890a29	0.06691391
232	0xbd91fd7b	-0.07128426
233	0x3daa4ae3	0.08315065
234	0x3db1375a	0.086531356
235	0xbd150dc7	-0.036390092
236	0xbdbe4cb3	-0.09291973
237	0x3ce5fd48	0.028074875
238	0x3be06177	0.006847556
239	0xbd525be4	-0.051357165
240	0xbcc395ba	-0.023875106
241	0x3d1fe3fe	0.03903579
242	0xbd11192c	-0.035424396
243	0x3c8814f8	0.016611561
244	0xbd8d9876	-0.06913845
245	0x3dc888b5	0.097917
246	0x3d720759	0.05908904
247	0xbd1ba615	-0.038000185
248	0xbd984250	-0.07434523
249	0x3d44676c	0.047950193
250	0x3b2b3508	0.0026124138
251	0x3c7dbb8d	0.01548661
252	0xbb12ddd0	-0.0022410043
253	0xbc71c203	-0.014755729
254	0x3c19b113	0.009380597
255	0x3dd9cbff	0.10634612

layer2.bias f4 [128]
0	0x3e9412b8	0.2892053
1	0x3e93f488	0.288975
2	0x3e531b8a	0.20615974
3	0x3d6ef6ba	0.058340766
4	0x3ddfc8a0	0.10926938
5	0x3e6617b2	0.22469977
6	0x3e5a22a0	0.21302271
7	0xbd7acf43	-0.061232816
8	0x3c7b9520	0.015355378
9	0x3a2a4359	0.0006495021
10	0x3daae27d	0.083439805
11	0x3d44b201	0.04802132
12	0xbeb48be0	-0.35262966
13	0x3e89c13e	0.26905245
14	0xbeb964d2	-0.36209732
15	0xbea579ee	-0.32319587
16	0x3e07b209	0.13251509
17	0x3dec858c	0.115489095
18	0xbd376170	-0.044770658
19	0xbcbdc041	-0.023162963
20	0xbeaf72a8	-0.34267163
21	0x3e1b16c6	0.15145406
22	0xbe5dd92e	-0.21664879
23	0x3e61797c	0.22018999
24	0x3e02d7ec	0.1277768
25	0x3eb14a4b	0.34626994
26	0xbe6d2c09	-0.2316133
27	0x3edbe675	0.42949262
28	0x3e8a8140	0.27051735
29	0x3e539d76	0.20665535
30	0x3ee5c6ef	0.44878337
31	0xbdea14b6	-0.114297315
32	0x3ded0620	0.11573434
33	0xbd3ecc16	-0.04658135
34	0xbee24cb3	-0.44199142
35	0xbe878f69	-0.264766
36	0x3e3cee53	0.18450288
37	0x3e700513	0.23439436
38	0xbedc5ebe	-0.43041033
39	0x3df57420	0.1198504
40	0xbdde3745	-0.108503856
41	0xbcbecd10	-0.02329114
42	0xbc94ed74	-0.018179633
43	0xbf19d061	-0.60083586
44	0x3d6a3a05	0.057184238
45	0x3e866270	0.26246977
46	0x3eff85a0	0.49906635
47	0xbcd9bbd8	-0.026578829
48	0x3d316427	0.043308403
49	0x3e89416a	0.2680772
50	0x3eb87790	0.3602872
51	0x3eb10e8f	0.3458142
52	0x3e8d6338	0.2761476
53	0xbc8506ba	-0.016238559
54	0xbd39c8f0	-0.045357645
55	0x3eab0645	0.3340322
56	0x3ed40336	0.414087
57	0xbe9ce804	-0.30645764
58	0xbd522642	-0.051306017
59	0x3e669caf	0.22520708
60	0x3e8e2503	0.27762613
61	0xbc5e7c82	-0.01357949
62	0x3ea1d3ae	0.3160681
63	0x3e0041b0	0.12525058
64	0x3d19859e	0.037480943
65	0xbeda7162	-0.4266463
66	0x3dcb7783	0.099349044
67	0x3e16de4e	0.1473324
68	0x3d8c3b09	0.068471976
69	0x3eb54003	0.354004
70	0xbb1a9399	-0.002358651
71	0x3edbaa6b	0.42903456
72	0x3ea0d86b	0.31415114
73	0x3e78e2c9	0.24305262
74	0x3ed1c6cf	0.4097199
75	0x3e3c61ed	0.1839673
76	0x3e8e1233	0.2774826
77	0xbdf2b1db	-0.118503295
78	0xbb9fa3b4	-0.00487181
79	0xbdf34258	-0.118778884
80	0x3e839a91	0.25703862
81	0x3e57f49b	0.21089403
82	0x3df2e97d	0.118609406
83	0x3db4dbfa	0.0883102
84	0x3e5c237f	0.21497916
85	0xbe171147	-0.14752685
86	0x3c4b2bcd	0.01240058
87	0x3e35cd7d	0.17754169
88	0x3e858109	0.2607501
89	0xbddb41c5	-0.10705904
90	0x3c2bc545	0.010484044
91	0x3eb5c158	0.35499072
92	0xbd93aceb	-0.07210716
93	0xbec9fa04	-0.3944856
94	0xbd88d4fc	-0.066812485
95	0xbe5b500c	-0.21417254
96	0x3edc3fe4	0.43017495
97	0x3ec7d591	0.39030126
98	0x3dc710f0	0.097200274
99	0x3e3d49da	0.18485203
100	0x3e0e4138	0.13892066
101	0x3c2e312d	0.010631842
102	0x3e942433	0.28933868
103	0x3ef7404c	0.48291242
104	0x3eddcf2f	0.4332213
105	0xbe3f417b	-0.18677323
106	0xbeaecf85	-0.341427
107	0xbe48ce4a	-0.19609943
108	0xbe04e01e	-0.12976119
109	0x3e9b1af2	0.30293995
110	0x3ea65322	0.324853
111	0xbe5a0e8a	-0.21294609
112	0x3e83983b	0.2570208
113	0x3e89af1e	0.26891416
114	0xbef3b1eb	-0.47596678
115	0x3eba4fb7	0.36388943
116	0xbcf02ccf	-0.029318241
117	0xbe11d945	-0.14243038
118	0xbe603d3a	-0.21898356
119	0xbecadf90	-0.3962369
120	0x3e913894	0.28363478
121	0xbeb0b885	-0.34515777
122	0x3eb408bf	0.35162923
123	0x3e9f3ec7	0.31102583
124	0x3e59c87a	0.21267882
125	0x3ddf795e	0.10911821
126	0x3cd00e21	0.025397362
127	0x3e34e27e	0.17664525

layer3.weight f4 [5, 128]
0	0x3dd9664b	0.10615214
1	0x3d9296a1	0.071576364
2	0x3d57238f	0.052524146
3	0x3e379c61	0.17930748
4	0x3de680ca	0.11255033
5	0xbe1c95f9	-0.15291585
6	0xbc4801a3	-0.0122074215
7	0xbdf987b1	-0.12184084
8	0x3e959e06	0.29222125
9	0xbe0cc667	-0.1374756
10	0x3e0fbd69	0.14037098
11	0x3d7dbc72	0.061947294
12	0xbe43abad	-0.19108458
13	0xbe92f216	-0.28700322
14	0xbe13832d	-0.14405508
15	0xbe644aee	-0.22294208
16	0xbe87badc	-0.2650975
17	0x3e3975f8	0.18111408
18	0xbe83ae0c	-0.25718725
19	0x3e007609	0.12545027
20	0xbe3cc9d6	-0.1843637
21	0x3e2e8fc8	0.17047036
22	0xbde1b084	-0.11019996
23	0x3e835200	0.256485
24	0x3e5619c1	0.20908262
25	0x3dd0bbd6	0.10192077
26	0xbe06e305	-0.13172539
27	0x3e431703	0.19051747
28	0x3dbca605	0.09211353
29	0x3e8d1c1c	0.27560508
30	0x3dbc2855	0.0918738
31	0xbe27dddc	-0.16393226
32	0xbd0acd43	-0.03388716
33	0x3df4349e	0.119240984
34	0xbe1735f8	-0.14766681
35	0xbe0c8a6a	-0.13724676
36	0x3d6377ed	0.055534292
37	0x3e148f3f	0.14507769
38	0xbe2f7c88	-0.17137349
39	0x3d86a247	0.06573921
40	0xbdc0ff93	-0.09423747
41	0xbde9ed5e	-0.11422227
42	0xbdb50d77	-0.08840459
43	0xbdd68b0a	-0.10475738
44	0xbd22c6c5	-0.039740343
45	0x3e55db0c	0.20884341
46	0x3d6c1faa	0.057647385
47	0x3dc59788	0.09648043
48	0x3e04cfc0	0.12969875
49	0x3e668616	0.22512087
50	0x3d328ff5	0.04359432
51	0x3e38e329	0.18055405
52	0xbcb84052	-0.022491608
53	0x3e21fda6	0.15819415
54	0xbd62e570	-0.05539459
55	0x3e239a87	0.15976916
56	0x3e03eee1	0.12884094
57	0xbe12c656	-0.14333472
58	0xbdd28e0a	-0.10280998
59	0x3def6351	0.11688865
60	0x3daf9a4b	0.08574351
61	0x3dba2e69	0.09090883
62	0x3df4103c	0.11917159
63	0x3d9fd7d5	0.078048386
64	0xbd83d46c	-0.06437001
65	0xbe7e6ff6	-0.24847397
66	0xbe5589b3	-0.2085331
67	0xbe82787e	-0.25482553
68	0xbdbb023f	-0.09131288
69	0x3db9ca23	0.09071758
70	0xbe3fa1fa	-0.18714133
71	0x3e1495f9	0.14510335
72	0x3e1cf94b	0.15329473
73	0x3e7e3e47	0.24828444
74	0x3dd6bc8b	0.104851805
75	0xbbecd6b0	-0.007227741
76	0x3d0d9f69	0.034575853
77	0xbd5e7844	-0.054313913
78	0x3e3f5572	0.18684939
79	0xbe64eb66	-0.22355422
80	0x3d9c680c	0.07637033
81	0x3e1ea762	0.15493539
82	0x3e17d164	0.1482597
83	0x3e361d72	0.1778467
84	0x3d452446	0.048130296
85	0xbe4c342c	-0.19941777
86	0xbe3448ca	-0.17605892
87	0x3ccf2fb9	0.02529131
88	0x3e44c416	0.19215426
89	0xbde6c925	-0.11268834
90	0xbd882c78	-0.06649107
91	0x3d3c9203	0.046037685
92	0x3d9d2827	0.07673674
93	0xbe28b191	-0.16473986
94	0xbd89ceb5	-0.06728879
95	0xbe3d8edb	-0.18511526
96	0x3dc84028	0.09777862
97	0x3e88e2f6	0.26735657
98	0x3d922481	0.07135869
99	0xbddf4706	-0.109022185
100	0x3dc571cd	0.096408464
101	0xbdb59d7c	-0.088679284
102	0x3e8fc441	0.28079417
103	0x3e6b9d5d	0.23009248
104	0x3d9f23ac	0.07770476
105	0xbde1a9f4	-0.11018744
106	0x3d871afe	0.06596945
107	0xbdb2469e	-0.087048754
108	0xbe679f6d	-0.2261941
109	0xbbef140a	-0.00729609
110	0xbe26f484	-0.16304213
111	0xbdb27ff0	-0.087158084
112	0x3de5e6c5	0.112256564
113	0x3e1eb513	0.15498762
114	0xbe093e70	-0.13402724
115	0x3d42278d	0.047401
116	0xbd809ea3	-0.062802576
117	0xbe108c19	-0.14115943
118	0xbdcced23	-0.10006168
119	0xbe5bc8dc	-0.2146334
120	0x3e516520	0.20448732
121	0xbdd5cdf4	-0.10439673
122	0x3e17bbec	0.1481778
123	0x3d25f7c5	0.040519495
124	0x3b86b5d4	0.004111031
125	0xbdb2b7fd	-0.08726499
126	0xbd344084	-0.04400684
127	0x3dd83a43	0.105579875
128	0x3d368a34	0.044565395
129	0x3dd3d950	0.103441834
130	0x3bdf9b73	0.006823951
131	0x3e1bc753	0.15212755
132	0xbd85ca1d	-0.06532691
133	0xbe25c6d2	-0.16189125
134	0x3c6a3b4f	0.014296367
135	0xbe0f1872	-0.13974169
136	0x3e8d7683	0.2762948
137	0xbe1b4144	-0.15161616
138	0x3e06f9d0	0.13181233
139	0x3dab50b3	0.083650015
140	0xbe2c0a51	-0.1680081
141	0xbe9ffcf4	-0.31247675
142	0xbdf64f83	-0.120268844
143	0xbe6b231d	-0.22962613
144	0xbe922bce	-0.28549045
145	0x3e4c673e	0.19961259
146	0xbe4c2fea	-0.19940153
147	0x3e136f45	0.14397915
148	0xbe2caf85	-0.1686383
149	0x3e569994	0.20957023
150	0xbcda4326	-0.026643347
151	0x3e8e6e01	0.278183
152	0x3e52420f	0.20533012
153	0x3cd83a5d	0.026395017
154	0xbcb08bbf	-0.021551011
155	0x3e5686de	0.20949885
156	0x3e1feebe	0.15618417
157	0x3ea035db	0.31291088
158	0xbd5052dc	-0.05086027
159	0xbe064e0c	-0.1311571
160	0x3dc3f4fe	0.09568213
161	0x3c0a58bb	0.008444007
162	0xbdfa39e1	-0.12218071
163	0xbe008094	-0.12549049
164	0x3ce5affd	0.02803802
165	0x3e590581	0.21193506
166	0xbe7f2ece	-0.24920198
167	0x3de7e990	0.113238454
168	0xbe0cb1aa	-0.13739648
169	0x3cdacf64	0.02671022
170	0xbe28fc02	-0.16502383
171	0xbe34d99f	-0.17661141
172	0xbdbadf87	-0.09124666
173	0x3e2b1182	0.16705897
174	0x3dbf69a4	0.09346321
175	0x3da62a1f	0.08113503
176	0x3df83438	0.12119335
177	0x3e2d9675	0.16951926
178	0x3db65eb9	0.08904786
179	0x3e0d7121	0.13812687
180	0x3dcf1892	0.10112108
181	0x3e3a8e68	0.18218386
182	0xbe48d1af	-0.19611238
183	0x3df68696	0.12037389
184	0x3dde470b	0.10853394
185	0xbdf67c44	-0.120354205
186	0xbe6314d6	-0.22175917
187	0x3ddbcb01	0.10732079
188	0x3e2f0ad3	0.17093973
189	0x3dc0d655	0.094158806
190	0x3ddbfc88	0.10741526
191	0x3ccef664	0.025263973
192	0xbe381b68	-0.17979205
193	0xbe536f73	-0.20647983
194	0xbdd07990	-0.10179436
195	0xbe3df08e	-0.18548796
196	0xbd9343ff	-0.071907036
197	0x3da1b63a	0.07896085
198	0xbe3420e3	-0.1759067
199	0x3dcefd5c	0.10106918
200	0x3e01ac41	0.12663366
201	0x3e8183b2	0.25295788
202	0x3cdd91b8	0.027047023
203	0x3d9e30a5	0.07724122
204	0xbde92b2c	-0.113851875
205	0xbe594e80	-0.21221352
206	0x3e913308	0.28359246
207	0xbdc158ab	-0.0944074
208	0x3e0ebd01	0.13939287
209	0x3e00b9b7	0.12570845
210	0x3e50564b	0.20345418
211	0x3de97667	0.113995366
212	0x3d0d65e1	0.034520987
213	0xbe4499f2	-0.1919935
214	0xbe20b562	-0.15694192
215	0x3dabb8eb	0.0838488
216	0x3e3faa80	0.18717384
217	0xbdb059c5	-0.08610872
218	0xbd9bbe90	-0.07604706
219	0xbdd54fe5	-0.10415629
220	0xbdb7bd5b	-0.089716636
221	0xbdc6c4c2	-0.09705497
222	0xbe06b472	-0.13154772
223	0xbe582275	-0.21106894
224	0x3d43102a	0.047622837
225	0x3e94ce76	0.29063767
226	0x3d951ccf	0.072808854
227	0xbdc84b6c	-0.097800106
228	0xbbdfaa74	-0.0068257395
229	0x3ce88409	0.028383272
230	0x3e870e2c	0.26378
231	0x3e1e34e5	0.15449865
232	0xbd0dff63	-0.034667384
233	0xbda802a7	-0.08203631
234	0x3cad28fb	0.021137705
235	0xbd577c02	-0.052608497
236	0xbe02f145	-0.1278735
237	0x3da32fd2	0.079681054
238	0xbe384680	-0.17995644
239	0xbe045730	-0.12923884
240	0x3e05140b	0.12995927
241	0x3e3a3320	0.18183565
242	0xbe114326	-0.14185771
243	0x3dd45098	0.103669345
244	0xbdd4165e	-0.10355829
245	0xbdbc2210	-0.091861844
246	0xbdf0d99c	-0.11760256
247	0xbdc29863	-0.09501722
248	0x3e71e417	0.23622166
249	0xbdf30f25	-0.11868123
250	0xbc4082d6	-0.011749944
251	0x3e0e66e1	0.13906433
252	0x3cec2168	0.028824523
253	0x3c4a5f11	0.012351767
254	0x3dae0062	0.08496167
255	0x3db6494c	0.08900699

layer3.bias f4 [5]
0	0x3d86e148	0.06585938
1	0x3e22283b	0.15835659
2	0x3dce758a	0.100810125
3	0x3ddbfeaf	0.107419364
4	0xbc6f31a8	-0.014599241
